models/policy.pth (torch, 8126 bytes, 6 tensors)

net.0.weight f4 [32, 7]
0.35687464 -0.0942475 -0.31614274 -0.35632312 -0.3023391 -0.16433391 0.22839074 -0.35894027
-0.1900418 -0.20345275 0.21267535 0.3375926 -0.0007900723 -0.32313535 -0.27672666 0.29213333
-0.008534493 -0.2724338 -0.33299983 -0.32444894 0.07196142 -0.26085308 -0.21183333 0.25595364
0.14068437 -0.058331802 -0.23418172 0.15671773 -0.28314805 0.2170232 0.036781684 0.3128089
0.17840122 -0.04739902 -0.24144533 -0.31500784 -0.22914214 0.14305927 0.08629923 0.1153183
-0.19362882 0.33481315 -0.090677276 -0.057974458 0.038368408 0.36453593 0.17570266 -0.18815184
0.2844478 0.19353203 -0.28921324 0.05494231 -0.30999422 -0.20871823 0.17913581 0.29962677
-0.17784935 0.30060235 0.0042964434 -0.07114562 -0.32009783 -0.30534148 -0.17046642 0.080240846
0.20626591 0.09589 0.017932096 -0.31021604 0.115012765 -0.356567 -0.35678452 0.0018193065
-0.12468774 0.103566244 -0.14173807 -0.20566702 -0.23964459 0.1735344 -0.25910568 0.1376865
0.10354863 0.30625257 -0.2569636 -0.2442995 0.20536351 -0.13986272 0.22925799 -0.34437296
-0.16019693 0.05116677 0.1591361 0.007257356 -0.32681707 -0.10845519 -0.34641552 -0.11975973
-0.37121242 0.08864904 -0.25544715 0.32062635 -0.20994936 -0.21259032 -0.36137512 0.008141597
0.09209296 0.12064289 0.0565986 -0.1755096 -0.2678977 -0.12431444 -0.09781546 -0.054513592
0.37506497 -0.30155626 -0.27442273 -0.31517592 -0.03992314 -0.08167888 -0.060531706 -0.12206462
-0.071395956 -0.0054497644 0.22917333 0.2890391 -0.2622136 -0.29026616 -0.18563932 0.23742068
-0.14861163 0.14762646 0.2669551 -0.11893646 -0.1408313 0.3416609 0.07295645 -0.16041397
-0.13805026 -0.35062328 0.32354566 0.32978773 0.11825051 -0.14609502 -0.35438552 0.08091386
0.20695493 -0.08126517 -0.33453846 0.00483654 0.32504907 0.24883556 0.2700704 0.30364364
0.028859695 0.16493754 -0.3741395 -0.058638368 -0.0722637 0.1587524 -0.32086903 -0.23502234
-0.017649049 0.23725617 0.110306576 0.035583846 -0.22306763 -0.10328266 0.31099182 -0.0062517766
-0.23650116 0.34104702 0.26435292 0.024331253 -0.16793509 -0.09369217 0.372893 0.22053836
0.19896571 0.14573826 -0.13047813 -0.08566231 -0.26187485 0.16735822 0.29345265 -0.1858246
0.06387695 -0.3726813 -0.35447672 0.02284014 0.31989148 0.22844553 0.26869702 0.27670097
0.06548152 0.1146811 0.3772704 -0.18368278 -0.045117836 -0.266714 -0.19179162 -0.32252315
-0.285882 0.31850526 0.06445098 0.11362632 -0.27049404 0.35441607 0.12921059 -0.11345398
0.06153679 -0.08938338 0.20711803 0.009688625 0.35097787 -0.142498 -0.34749517 0.1457995
-0.09568733 0.13511445 -0.2773822 0.060284566 -0.04124466 -0.18651064 0.15947454 0.32051483
00000000: 46b8 b63e d504 c1bd 76dd a1be fc6f b6be
00000010: 31cc 9abe 2647 28be 43df 693e 05c7 b7be
00000020: 519a 42be eb55 50be 91c7 593e f0d8 ac3e
00000030: db1c 4fba ff71 a5be 1eaf 8dbe 8092 953e
00000040: 42d4 0bbc 717c 8bbe f47e aabe 2c1e a6be
00000050: 8260 933d 898e 85be d6ea 58be 5b0c 833e
00000060: 900f 103e 54ed 6ebd 55cd 6fbe 9d7a 203e
00000070: c8f8 90be 543b 5e3e 64a8 163d 7d28 a03e
00000080: cfae 363e 7a25 42bd 723d 77be b548 a1be
00000090: 3da4 6abe 217e 123e a7bd b03d 002c ec3d
000000a0: a246 46be a16c ab3e 02b5 b9bd a076 6dbd
000000b0: 3128 1d3d 74a4 ba3e 66eb 333e e0aa 40be
000000c0: 24a3 913e 432d 463e c213 94be 300b 613d
000000d0: 90b7 9ebe 3bba 55be 616f 373e ae68 993e
000000e0: 241e 36be 8de8 993e 2ec9 8c3b cbb4 91bd
000000f0: dde3 a3be b855 9cbe c08e 2ebe 5055 a43d
00000100: 5f37 533e fa61 c43d 55e6 923c a3d4 9ebe
00000110: d08b eb3d f38f b6be 76ac b6be cc75 ee3a
00000120: 495c ffbd 8a1a d43d c923 11be 609a 52be
00000130: 6465 75be 00b3 313e 80a9 84be b1fd 0c3e
00000140: 4e11 d43d 23cd 9c3e bc90 83be a629 7abe
00000150: d04a 523e 2c38 0fbe 9bc2 6a3e a751 b0be
00000160: aa0a 24be 3f94 513d 93f4 223e 1dcf ed3b
00000170: 9154 a7be c11d debd 605d b1be 9744 f5bd
00000180: 8e0f bebe a18d b53d f8c9 82be 2329 a43e
00000190: f7fc 56be 47b1 59be 2906 b9be 5564 053c
000001a0: 3c9b bc3d 9f13 f73d efd3 673d cab8 33be
000001b0: e329 89be 9298 febd 7953 c8bd a549 5fbd
000001c0: 8408 c03e 9565 9abe 2381 8cbe bd5e a1be
000001d0: 7286 23bd 4247 a7bd 18f0 77bd 04fd f9bd
000001e0: 0b38 92bd f093 b2bb 6aac 6a3e effc 933e
000001f0: dc40 86be c49d 94be 3c18 3ebe 681e 733e
00000200: a62d 18be 642b 173e 57ae 883e f594 f3bd
00000210: 1536 10be 2dee ae3e 316a 953d 8f43 24be
00000220: 0c5d 0dbe e584 b3be c7a7 a53e f0d9 a83e
00000230: 532d f23d ef99 15be 0572 b5be 2ab6 a53d
00000240: feeb 533e 5a6e a6bd a048 abbe d77b 9e3b
00000250: d56c a63e c0ce 7e3e ab46 8a3e 2e77 9b3e
00000260: 2b6b ec3c 63e5 283e 368f bfbe c92e 70bd
00000270: fefe 93bd fd8f 223e f248 a4be b2a9 70be
00000280: bd94 90bc 48f3 723e 6ae8 e13d 5ec0 113d
00000290: d76b 64be dc85 d3bd 523a 9f3e b4db ccbb
000002a0: 5c2d 72be b79d ae3e 4459 873e 5652 c73c
000002b0: 2df7 2bbe aee1 bfbd d5eb be3e cfd4 613e
000002c0: abbd 4b3e 693c 153e 0f9c 05be b96f afbd
000002d0: 7614 86be f45f 2b3e 6d3f 963e ce48 3ebe
000002e0: ebd1 823d 15d0 bebe f97d b5be 3f1b bb3c
000002f0: d1c8 a33e a0ed 693e a892 893e c0ab 8d3e
00000300: 2d1b 863d eddd ea3d 9629 c13e 5717 3cbe
00000310: 7bcd 38bd bd8e 88be 0665 44be c121 a5be
00000320: 205f 92be 1f13 a33e e0fe 833d ebb4 e83d
00000330: 327e 8abe 0676 b53e c84f 043e 8f5a e8bd
00000340: 000e 7c3d a20e b7bd c016 543e 0abd 1e3c
00000350: 5fb3 b33e ffea 11be e3ea b1be 774c 153e
00000360: b8f7 c3bd 715b 0a3e 0a05 8ebe f3ec 763d
00000370: 29f0 28bd a5fc 3ebe 4b4d 233e 851a a43e

net.0.bias f4 [32]
-0.0542451 0.23826815 0.3361849 -0.071791016 -0.25737813 -0.109012045 0.30600274 -0.24030279
0.31310916 -0.18061602 -0.12840736 -0.12236763 -0.19921744 -0.17426589 0.055535484 -0.08443834
0.12579285 0.17608398 0.3016739 -0.33093515 -0.14426558 -0.13095145 -0.27423483 -0.25651205
0.18545198 0.0671652 0.034740698 0.00564022 -0.3066116 0.15002832 -0.16210423 0.3072527
00000000: 1c30 5ebd 91fc 733e 6d20 ac3e 2b07 93bd
00000010: 11c7 83be b541 dfbd 64ac 9c3e ef11 76be
00000020: d84f a03e 68f3 38be 387d 03be e19b fabd
00000030: a8ff 4bbe c272 32be 2d79 633d 02ee acbd
00000040: d7cf 003e 5c4f 343e 0075 9a3e 5570 a9be
00000050: 5bba 13be 2318 06be 8268 8cbe 8c55 83be
00000060: 20e7 3d3e e98d 893d 434c 0e3d 98d1 b83b
00000070: 32fc 9cbe 06a1 193e a7fe 25be 3a50 9d3e

net.2.weight f4 [32, 32]
-0.13199882 0.16650161 0.04811326 0.06861363 0.17310867 -0.018653225 -0.11568652 -0.10726744
0.07588487 0.10353746 0.09466336 0.014961562 -0.08612782 -0.16419888 -0.14965105 0.10498196
0.034872722 0.06580132 -0.07726874 -0.14219157 -0.14488319 0.15298975 -0.08195767 -0.104670666
0.046929862 -0.113290034 0.045353487 0.11614624 -0.07463052 -0.1512677 -0.0067547276 -0.098610535
0.0055081504 0.08661398 0.15006058 -0.062562674 0.1565344 -0.09536687 -0.009580779 0.07936774
0.1316273 -0.040778045 0.062051814 -0.15613697 -0.03503655 0.037917368 -0.015335931 -0.06168779
0.01452315 0.16072372 -0.097850695 -0.16709112 0.109688945 -0.15103438 0.097705916 0.16090576
0.116996996 -0.054504473 -0.1320639 0.014293914 0.15239727 0.0656332 -0.1339506 -0.08078316
0.081667 0.09476289 -0.084157266 0.10708136 -0.09405039 0.035313178 -0.096695825 -0.063678764
-0.06248264 0.12386172 0.09718795 0.118317686 0.08097961 0.081900805 -0.13383391 -0.15583251
-0.06079432 -0.115891844 -0.057779368 -0.13979307 0.06678141 -0.13473026 -0.07440347 -0.08110744
0.1482235 -0.17605762 0.11495039 -0.17622969 -0.055735707 -0.0905104 0.15332094 0.112608455
-0.0061685075 -0.007158537 -0.10445696 0.17016234 -0.056220543 0.0672555 -0.14707416 0.11893524
-0.12527527 0.14247465 0.06897553 0.13326266 -0.16462182 -0.09690009 -0.15736638 -0.12959903
-0.06562308 0.13316733 -0.10099529 -0.1523998 -0.094075575 -0.063936956 0.11898789 0.07367579
0.02309738 0.12363852 0.02567586 0.15266122 -0.17547815 -0.07078399 0.07692086 0.13889274
-0.1026635 -0.14171821 0.086249076 -0.01600004 -0.15971231 0.15887056 0.020265426 -0.15773432
-0.081684634 0.12314837 0.030336268 -0.019335182 -1.4962131e-05 0.0061850287 -0.100342184 -0.0700312
0.018687576 -0.15411489 0.1084844 -0.0077205016 0.019990902 -0.034833044 -0.15917863 0.09252287
-0.053558614 -0.095365085 0.072981164 0.17383611 -0.088817485 0.030330747 0.047368653 -0.17463633
0.036398314 0.058659352 0.041257907 -0.14882846 -0.022529135 0.10300515 -0.057566904 -0.105033256
0.123744644 -0.030065117 0.15517142 0.1208595 -0.12969191 -0.08549939 -0.1294389 0.011603976
-0.14267589 -0.119886436 0.055667263 0.07348872 0.011706224 0.081126906 -0.055214606 -0.107136026
0.044157654 -0.1576763 -0.1556434 0.033464532 0.0062535596 0.15907978 0.0016041091 -0.13076426
-0.10208044 0.017213067 0.12662423 -0.15743913 0.02537824 -0.08748255 0.031251594 0.017428523
-0.071141854 -0.12141548 -0.12503292 -0.045287315 -0.10562691 0.054333273 -0.035756838 -0.050612338
0.1551684 0.13192183 -0.09413102 0.05147232 0.10981584 -0.08977435 -0.009663766 -0.056237
0.026843686 -0.104027085 -0.005923128 -0.03299306 0.14955673 0.1486071 -0.15803804 -0.01734016
0.13541603 -0.078156166 0.0058692223 0.085381925 -0.17082453 -0.17082916 -0.12117206 0.033813447
0.13185921 -0.12872699 0.1489842 -0.07590784 0.041042093 -0.1021832 -0.17489392 -0.021154536
0.016164307 -0.16139527 0.0902239 -0.11445476 0.120836616 0.06197087 0.048302248 -0.13720696
0.16504312 0.12365712 -0.07506859 0.0017053036 -0.12934884 -0.07588161 -0.15067635 -0.10153721
00000000: b32a 07be 667f 2a3e 6912 453d 4e85 8c3d
00000010: 6643 313e a6ce 98bc 0eed ecbd 08af dbbd
00000020: 8769 9b3d 730b d43d ddde c13d 5721 753c
00000030: c863 b0bd c023 28be 203e 19be c800 d73d
00000040: b3d6 0e3d d8c2 863d 133f 9ebd ab9a 11be
00000050: 425c 14be 58a9 1c3e 6cd9 a7bd 935d d6bd
00000060: 8739 403d 9b04 e8bd 94c4 393d 14de ed3d
00000070: e3d7 98bd ece5 1abe c356 ddbb 52f4 c9bd
00000080: b77d b43b ac62 b13d 7ba9 193e dc20 80bd
00000090: 8e4a 203e b54f c3bd b3f8 1cbc 8e8b a23d
000000a0: 4fc9 063e e106 27bd 0b2a 7e3d 5fe2 1fbe
000000b0: 7c82 0fbd 3e4f 1b3d 8f43 7bbc 56ac 7cbd
000000c0: 82f2 6d3c c294 243e f265 c8bd ef19 2bbe
000000d0: 99a4 e03d c2a8 1abe 0a1a c83d 7bc4 243e
000000e0: 1f9c ef3d 1540 5fbd c23b 07be 0531 6a3c
000000f0: 080e 1c3e b36a 863d 592a 09be a471 a5bd
00000100: 0741 a73d 0c13 c23d a55a acbd 794d db3d
00000110: 7e9d c0bd 8da4 103d 7608 c6bd 036a 82bd
00000120: cced 7fbd 37ab fd3d 7a0a c73d 8b50 f23d
00000130: a3d8 a53d 9cbb a73d c20b 09be 8f92 1fbe
00000140: 7703 79bd b458 edbd 0faa 6cbd ea25 0fbe
00000150: b1c4 883d bbf6 09be d960 98bd a81b a6bd
00000160: e7c7 173e 7348 34be 1c6b eb3d 8e75 34be
00000170: 204b 64bd 845d b9bd 2a00 1d3e 439f e63d
00000180: 3121 cabb 2992 eabb 88ed d5bd 093f 2e3e
00000190: 8347 66bd 40bd 893d 9c9a 16be 5294 f33d
000001a0: 2948 00be e0e4 113e 0b43 8d3d 0276 083e
000001b0: 9f92 28be 8e73 c6bd a724 21be 9cb5 04be
000001c0: 6565 86bd 045d 083e 9ed6 cebd b10e 1cbe
000001d0: b2aa c0bd 61f1 82bd ecaf f33d 55e3 963d
000001e0: b736 bd3c 3136 fd3d 2e56 d23c 3953 1c3e
000001f0: 8bb0 33be 32f7 90bd af88 9d3d e639 0e3e
00000200: 3e41 d2bd 941e 11be 5ba3 b03d 8412 83bc
00000210: a08b 23be f7ae 223e ae03 a63c 1b85 21be
00000220: 464a a7bd 3635 fc3d c483 f83c d164 9ebc
00000230: dd05 7bb7 c8ab ca3b 3480 cdbd 856c 8fbd
00000240: b016 993c 4bd0 1dbe 122d de3d 43fc fcbb
00000250: f6c3 a33c 18ad 0ebd b9ff 22be a17c bd3d
00000260: 4760 5bbd c54e c3bd 2677 953d 1802 323e
00000270: f1e5 b5bd 3078 f83c a205 423d ded3 32be
00000280: 6616 153d ca44 703d 0dfe 283d 7d66 18be
00000290: 058f b8bc 5df4 d23d 46cb 6bbd ad1b d7bd
000002a0: d56d fd3d 1f4b f6bc 42e5 1e3e 2f85 f73d
000002b0: f5cd 04be 4e1a afbd a28b 04be 9a1e 3e3c
000002c0: a119 12be 0587 f5bd 5b03 643d 4181 963d
000002d0: 76cb 3f3c dd25 a63d b628 62bd 226a dbbd
000002e0: a8de 343d e575 21be fc60 1fbe 1b12 093d
000002f0: a9ea cc3b cfe5 223e f840 d23a 11e7 05be
00000300: 8d0f d1bd 6b02 8d3c c8a9 013e b937 21be
00000310: 07e6 cf3c 0d2a b3bd ac01 003d 43c6 8e3c
00000320: d2b2 91bd aea8 f8bd a108 00be 317f 39bd
00000330: ec52 d8bd 918c 5e3d c375 12bd e24e 4fbd
00000340: 77e4 1e3e 8416 073e c4c7 c0bd a4d4 523d
00000350: 21e7 e03d 9ddb b7bd c654 1ebc c558 66bd
00000360: 4ae7 db3c 270c d5bd cd16 c2bb bb23 07bd
00000370: 6625 193e 762c 183e b9d4 21be f40c 8ebc
00000380: 80aa 0a3e 5710 a0bd 9b52 c03b b8dc ae3d
00000390: a0ec 2ebe d7ed 2ebe 0f29 f8bd f87f 0a3d
000003a0: 1a06 073e 02d1 03be 508f 183e 9275 9bbd
000003b0: c11b 283d 6d45 d1bd 6417 33be 474c adbc
000003c0: 026b 843c cd44 25be 4fc7 b83d 4267 eabd
000003d0: 3079 f73d 2bd5 7d3d 94d8 453d fb7f 0cbe
000003e0: 1001 293e f23f fd3d 90bd 99bd 7e84 df3a
000003f0: 0674 04be d167 9bbd e74a 1abe bef2 cfbd

net.2.bias f4 [32]
0.0090883775 0.034960475 -0.15906288 0.16886939 0.09441899 0.071683526 0.086697854 -0.049908254
-0.1498848 -0.026297063 0.15648139 0.026529102 -0.042321738 0.13956097 -0.08184893 -0.048112754
0.07871099 0.12921703 -0.023534885 -0.061479587 -0.02554649 -0.03900267 0.10693271 -0.03991159
-0.01239916 0.04560118 0.09762647 0.021298341 0.038112592 -0.00042878094 0.06256952 0.1540702
00000000: 6be7 143c b732 0f3d 61e1 22be 19ec 2c3e
00000010: be5e c13d d0ce 923d a58e b13d 996c 4cbd
00000020: 677b 19be f06c d7bc a83c 203e 8f53 d93c
00000030: 8f59 2dbd 12e9 0e3e 69a0 a7bd e111 45bd
00000040: 3a33 a13d 7851 043e 3bcc c0bc 05d2 7bbd
00000050: df46 d1bc 44c1 1fbd 89ff da3d 567a 23bd
00000060: d925 4bbc 4ec8 3a3d 63f0 c73d dc79 ae3c
00000070: f31b 1c3d 01ce e0b9 7324 803d 94c4 1d3e

net.4.weight f4 [4, 32]
-0.16821149 0.012962622 -0.01394911 0.13449278 0.17612304 0.06979044 -0.115295865 0.059440017
0.037139274 -0.16455013 -0.10101388 0.12475501 0.015726421 -0.08668829 0.098605946 -0.100332275
-0.16988567 0.07487027 -0.09304167 -0.010056786 -0.12023832 -0.16083026 0.03941371 0.04500961
0.020140946 -0.084209464 0.032843225 0.002943873 -0.16061322 0.057113256 0.078589186 0.14792256
0.053379405 -0.12921946 0.14129905 0.0635648 0.030024698 0.12795506 -0.042626563 -0.16045341
0.17498341 -0.00924744 -0.12329059 -0.16156954 -0.029265843 0.1351212 -0.13627139 -0.04023104
-0.028611429 0.15488088 0.16619864 0.14813538 0.076585226 0.010955526 -0.012037688 0.0046485444
0.15230756 -0.026001634 0.12803967 -0.055849988 0.0013167097 0.0012454183 0.069092296 -0.14532237
0.16238113 0.09270696 0.031574354 -0.13830653 -0.14681774 -0.15544307 -0.013223258 0.09078159
0.11270381 0.13251153 0.03286318 0.08261878 0.051899545 -0.01901691 -0.11224538 -0.15800563
0.08375287 -0.07048622 0.031822726 0.10129362 0.060830314 0.14478204 0.006107057 0.05770325
-0.15637384 -0.016110906 -0.048604947 0.060823444 0.12373961 -0.060158916 0.17585781 -0.053118747
0.035713512 -0.07430335 0.07609584 -0.12514596 -0.074417636 0.05349065 -0.033286296 0.008060163
-0.031784013 -0.024392087 -0.042393617 0.08485619 -0.082947716 -0.08793815 -0.10412109 -0.062312514
0.1447972 -0.12141999 -0.09725927 0.005230803 -0.05355404 0.14763391 -0.10996709 0.07940386
-0.10280771 -0.14143711 0.124820374 0.036758773 0.17008603 0.00025210137 -0.027154434 -0.03561413
00000000: a23f 2cbe 2d61 543c cf8a 64bc 7ab8 093e
00000010: 9959 343e 4aee 8e3d 3d20 ecbd 6077 733d
00000020: 5a1f 183d d47f 28be 5de0 cebd 8e7f ff3d
00000030: b2d4 803c a189 b1bd eaf1 c93d 027b cdbd
00000040: 82f6 2dbe 9655 993d a28c bebd 38c5 24bc
00000050: 823f f6bd b0b0 24be 4570 213d ff5b 383d
00000060: a0fe a43c 0376 acbd 9e86 063d feed 403b
00000070: cb77 24be 97ef 693d 5ef3 a03d 0379 173e
00000080: 5da4 5a3d 1b52 04be b3b0 103e 432e 823d
00000090: 5bf6 f53c a706 033e 3199 2ebd e64d 24be
000000a0: da2e 333e 9382 17bc c77f fcbd 7c72 25be
000000b0: ecbe efbc 365d 0a3e ba8a 0bbe 4ec9 24bd
000000c0: 8462 eabc 1899 1e3e fa2f 2a3e cdb0 173e
000000d0: b7d8 9c3d ce7e 333c b939 45bc d152 983b
000000e0: 83f6 1b3e 6101 d5bc d51c 033e f5c2 64bd
000000f0: 7295 ac3a 4e3d a33a 4380 8d3d 63cf 14be
00000100: 3d47 263e 26dd bd3d 1c54 013d 3aa0 0dbe
00000110: 6457 16be 782c 1fbe 5da6 58bc b3eb b93d
00000120: 41d1 e63d 1ab1 073e 8b9b 063d 0934 a93d
00000130: 9e94 543d 5ac9 9bbc e8e0 e5bd 3acc 21be
00000140: a086 ab3d 145b 90bd 8c58 023d 0873 cf3d
00000150: 3529 793d be41 143e b51d c83b 3e5a 6c3d
00000160: 7720 20be 05fb 83bc fb15 47bd 0122 793d
00000170: 316b fd3d 3269 76bd 1214 343e 0b93 59bd
00000180: 5548 123d 5b2c 98bd 23d8 9b3d 4326 00be
00000190: 4668 98bd 0319 5b3d 3657 08bd c60e 043c
000001a0: f42f 02bd ead1 c7bc eea4 2dbd 15c9 ad3d
000001b0: 7ee0 a9bd eb18 b4bd 703d d5bd 683b 7fbd
000001c0: b845 143e 0bab f8bd de2f c7bd 2867 ab3b
000001d0: 7b5b 5bbd 582d 173e 6d36 e1bd 7e9e a23d
000001e0: d98c d2bd e4d4 10be d3a1 ff3d 5e90 163d
000001f0: 082b 2e3e 792c 8439 fa72 debc 1fe0 11bd

net.4.bias f4 [4]
-0.07073322 -0.06853857 0.114806876 0.098812066
00000000: 94dc 90bd f35d 8cbd de1f eb3d fb5d ca3d
